save/noiseless_small_1.pth (torch_old, 38611 bytes, 3 tensors)

cv1.weight f4 [1, 1, 8, 8]
0	0x3e63ca76	0.22245201
1	0x3db0c5db	0.08631488
2	0xbb8301ad	-0.0039980025
3	0x3e2050f2	0.15655878
4	0x3e022b0f	0.12711738
5	0x3dbf0f66	0.09329109
6	0xbcc260d9	-0.023727821
7	0x3e78d1c2	0.24298766
8	0x3ca5c335	0.020234684
9	0x3d2b3ae8	0.041804224
10	0xbaacf4a2	-0.0013195465
11	0xbd8d23c8	-0.0689159
12	0x3cb4d86c	0.022075854
13	0x3e0b3513	0.13594465
14	0xbd88eac3	-0.06685402
15	0xbc2ef81c	-0.010679271
16	0x3da3d269	0.07999117
17	0x3dbd1cd8	0.09234017
18	0xbc51fa13	-0.01281597
19	0xbdfb5779	-0.122725435
20	0xbd480026	-0.048828267
21	0xbda463d8	-0.08026856
22	0x3c28a2f8	0.010292761
23	0x3c0e90a1	0.008701474
24	0xbcb3bc1e	-0.021940287
25	0x3dd1e770	0.10249221
26	0x3ce50dce	0.027960684
27	0x3d9c5520	0.07633424
28	0xbd0bc352	-0.03412182
29	0xbccd8d17	-0.025091691
30	0x3dd00781	0.10157681
31	0x3d859edf	0.06524443
32	0x3dcf2873	0.10115137
33	0x3db2bd99	0.08727569
34	0x3d4dec36	0.050274096
35	0xbd67db28	-0.056605488
36	0x3be7bf49	0.0070723635
37	0x3d3e345a	0.046436645
38	0xbdb3a008	-0.08770758
39	0x3de3a8c2	0.111161724
40	0x3d66553e	0.056233637
41	0xbcc63831	-0.024196716
42	0xbba1b286	-0.0049346117
43	0xbd08bbb4	-0.033382133
44	0x3d509a6d	0.050928522
45	0x3d93cdfd	0.072170235
46	0x3dfb34c9	0.12265927
47	0x3e00602c	0.12536687
48	0x3d27cbfd	0.040966023
49	0xbd8dc882	-0.069230095
50	0x3dcb0fe6	0.09915142
51	0xbd94cf06	-0.07266049
52	0x3bf97de9	0.0076138866
53	0x3e053384	0.13007933
54	0x3d012192	0.031526156
55	0x3e1f1004	0.15533453
56	0x3e5671ce	0.2094185
57	0x3e38bf53	0.18041734
58	0x3d21f32c	0.039538547
59	0xbd855e62	-0.06512143
60	0x3ab893c6	0.0014082126
61	0x3da7bb9e	0.08190082
62	0x3c9a5dff	0.018843649
63	0x3e4224b1	0.18959309

fc1.weight f4 [15, 625]
0	0xbde9086e	-0.11378561
1	0xbdda63b1	-0.10663546
2	0xbda44149	-0.08020265
3	0xbda4ef76	-0.08053486
4	0xbd33dc74	-0.043911412
5	0x3be0b8f6	0.0068579866
6	0xbd3a615f	-0.045503017
7	0xbd1fb2e0	-0.038988948
8	0xbc8ec6b4	-0.017428733
9	0xbd8bd5e8	-0.06827909
10	0xbc64a3e8	-0.013955094
11	0xbd9843a5	-0.07434777
12	0xbd8a6615	-0.06757752
13	0xbd877410	-0.06613934
14	0xbc0c499c	-0.008562472
15	0xbd772bb0	-0.060344398
16	0xbd2e4e5d	-0.0425552
17	0xbc937dd4	-0.018004335
18	0xbcf3c0db	-0.029755047
19	0xbd8eaa7f	-0.06966113
20	0xbd0e0489	-0.034672294
21	0xbd8bf437	-0.0683369
22	0xbddf9b76	-0.10918324
23	0xbd844a83	-0.064595245
24	0xbdc16750	-0.094435334
25	0xbdca32d5	-0.09872977
26	0xbd53e873	-0.051735353
27	0xbc93240a	-0.01796152
28	0x3a4f9151	0.0007918077
29	0x3d13cd25	0.036084313
30	0x3c0046d5	0.007829388
31	0xbaf8d218	-0.0018983511
32	0xbd11e810	-0.035621703
33	0x3d13a2ee	0.036044054
34	0x3cbf1481	0.023325207
35	0x3c6656e7	0.014058805
36	0xbd224329	-0.03961483
37	0xbc860063	-0.016357606
38	0xbc216a95	-0.009852071
39	0xbcbb5dc0	-0.022871852
40	0xbbe02bae	-0.0068411445
41	0x3ca1928d	0.019723201
42	0xbc62a303	-0.01383281
43	0xbb4d8adc	-0.0031363284
44	0x3d02a0f2	0.03189177
45	0xbc041705	-0.008062129
46	0xbc9c84aa	-0.019106228
47	0xbd1d3845	-0.03838374
48	0xbd9d7f3e	-0.07690285
49	0xbd894438	-0.06702465
50	0xbdbe905b	-0.09304877
51	0xbd40020a	-0.046876945
52	0xbc84add5	-0.01619617
53	0x3c98b6e7	0.018641902
54	0x3c077e7f	0.008269905
55	0x3cca62e3	0.024705356
56	0x3c1d3825	0.009595905
57	0x3c2a16d6	0.010381421
58	0x3c9e89c2	0.019352797
59	0x3d140352	0.03613598
60	0xbc0502a3	-0.008118304
61	0x3d0a6429	0.033786926
62	0xba1afb7c	-0.0005912108
63	0xbccf28fd	-0.0252881
64	0x3d4d0d23	0.050061356
65	0x3c0f2f9d	0.008739379
66	0x3cf97895	0.030453006
67	0x3d03cd1a	0.032178022
68	0xbb517029	-0.0031957722
69	0x3bae7775	0.005324299
70	0x3d4f5ad6	0.050623737
71	0x3d170a1b	0.03687487
72	0xbc897a6a	-0.016782004
73	0xbd1c7e45	-0.038206358
74	0xbd2014e2	-0.039082415
75	0xbd9e150f	-0.0771886
76	0xbd23c23b	-0.039980154
77	0x3cbd4aef	0.02310702
78	0x3d8d8622	0.069103494
79	0x3d6b9d8c	0.057523295
80	0x3c632a0e	0.013865007
81	0x3d662d14	0.056195334
82	0xbb9cfcfb	-0.0047909
83	0x3d531bfd	0.051540364
84	0x3cd675a1	0.026179137
85	0x3c8add4a	0.016951222
86	0xbca6616c	-0.020310126
87	0x3ae5cbbd	0.0017532032
88	0x3cbd487d	0.023105854
89	0x3c99cc64	0.018774219
90	0xbc69ee25	-0.0142779695
91	0x3d02c5bc	0.031926855
92	0x3d89d327	0.06729727
93	0x3c15f117	0.009151719
94	0x3c623bfd	0.013808248
95	0x3d82c928	0.06386024
96	0x3d53d5fc	0.051717743
97	0x3b852f38	0.004064467
98	0xbd3ce3e1	-0.04611576
99	0xbdaf8045	-0.08569387
100	0xbd682bc9	-0.05668238
101	0x3cfe033d	0.031007404
102	0x3bd16cb5	0.0063911327
103	0x3d8d92c8	0.06912762
104	0x3cd09f91	0.025466712
105	0x3d01db10	0.031703055
106	0x3d845a64	0.06462553
107	0xbc8562d6	-0.01628248
108	0x3b84097e	0.004029452
109	0xbc95b571	-0.018274995
110	0x3ca5cd21	0.020239415
111	0xbc5a966c	-0.013341527
112	0xbb034286	-0.0020028665
113	0xbbad79bd	-0.0052940533
114	0xbc21266b	-0.00983582
115	0xbcaf66e3	-0.021411365
116	0x3d775ba6	0.060390137
117	0x3bf1c835	0.007378603
118	0x3d6e97ce	0.05825024
119	0x3d8ea806	0.06965642
120	0x3d5ba8bf	0.053627726
121	0x3d5f5f60	0.054534316
122	0xbc39fbe0	-0.011351556
123	0x3b7845d4	0.0037883418
124	0xbdaadff6	-0.083434984
125	0xbd802770	-0.06257522
126	0x3af7e9ef	0.0018914322
127	0xbb34b76e	-0.0027575153
128	0x3c378eb8	0.01120346
129	0x3b9a8d89	0.0047165793
130	0xbc067f85	-0.008209114
131	0x3b3e70b7	0.0029058883
132	0x3d059169	0.032609377
133	0x3cbfc916	0.023411315
134	0x3d0d1730	0.03444594
135	0xbb6e8203	-0.003639341
136	0xbbd99eca	-0.0066412436
137	0x3b9f66f1	0.0048645665
138	0x3a509781	0.0007957146
139	0x3caaef1b	0.020865967
140	0x3d018291	0.03161866
141	0x3d0971a2	0.033555634
142	0x3bbba105	0.005725982
143	0x3d520653	0.051275562
144	0x3d89e531	0.06733168
145	0x3d7d4f69	0.06184331
146	0x3d356ee6	0.044295214
147	0x3b68f2ae	0.003554504
148	0x3cc8b1bf	0.024498818
149	0xbd786ca4	-0.060650483
150	0xbc833d05	-0.016020307
151	0x3cff33c0	0.031152606
152	0xbc77f986	-0.015135175
153	0x3cb78a2b	0.02240475
154	0x3d77e9d2	0.060525723
155	0x3d4de915	0.050271112
156	0x3d4aa755	0.049475987
157	0x3c1f95e0	0.009740323
158	0xbbd37e34	-0.0064542536
159	0x3ca461e3	0.020066207
160	0x3c5119fc	0.012762543
161	0x3d01e23e	0.031709902
162	0x3c115f9f	0.0088728955
163	0x3b30d4ff	0.0026982424
164	0xbc727df2	-0.0148005355
165	0xbcecb5bc	-0.028895251
166	0x3bce6712	0.006298908
167	0x3c816861	0.015796842
168	0x3cf9890c	0.030460857
169	0x3ca67b7d	0.020322556
170	0x3d7e3c67	0.062069323
171	0xbbc3f10b	-0.0059796623
172	0x3cc54994	0.024082936
173	0x3ce798fa	0.028271187
174	0xbd38ba37	-0.045099463
175	0xbd7c4158	-0.061585754
176	0x3c23efc0	0.010005891
177	0x3cedd3e8	0.029031709
178	0xbbd7b104	-0.006582381
179	0x3d301fd5	0.042999107
180	0xbc6e52f4	-0.014546145
181	0xbc9bb231	-0.019005867
182	0x3d38ee58	0.045149177
183	0x3c5fb3dd	0.013653723
184	0xbc16e99a	-0.009210968
185	0xbc587180	-0.013210654
186	0xbca274fd	-0.019831175
187	0xbce41a4e	-0.027844574
188	0xbc98bf3d	-0.018645877
189	0xbc42ffbe	-0.011901794
190	0x3d0b01ab	0.033937138
191	0x3bd398b2	0.0064574117
192	0x3d15e243	0.036592733
193	0xbc48a4af	-0.012246295
194	0x397213be	0.00023086273
195	0x3d0df754	0.0346597
196	0x3c5c588d	0.0134488465
197	0x3c0adce5	0.008475517
198	0x3ae91129	0.0017781603
199	0xbd5bd3fb	-0.053668957
200	0xbd6ceab7	-0.05784103
201	0xbd1f746f	-0.0389294
202	0x3bf02a9c	0.007329298
203	0x3d56ca29	0.05243889
204	0x3d21a87d	0.039467324
205	0x3d00f63c	0.031484827
206	0x3d597b57	0.05309614
207	0x3d64e614	0.055883482
208	0x3d4887ad	0.048957516
209	0x3c4451a7	0.011982358
210	0x3ce1fe29	0.027587013
211	0xbcfae415	-0.030626336
212	0xbbb94d82	-0.0056549916
213	0xbc01558b	-0.00789393
214	0x3b25147c	0.0025189212
215	0xbac9faea	-0.0015409861
216	0xbc911653	-0.01771084
217	0x3b7d3a67	0.0038639547
218	0x3c1714d2	0.009221273
219	0x3d6b5fb5	0.05746432
220	0x3ab55d69	0.0013837042
221	0x3bbbba19	0.0057289717
222	0xbc0b95e9	-0.008519628
223	0x3ce17fcc	0.027526759
224	0xbda09829	-0.07841522
225	0xbd44a928	-0.048012882
226	0xbc513bd4	-0.012770612
227	0x3ccd8819	0.02508931
228	0x3cb413a2	0.021982018
229	0x3d4fbd35	0.05071755
230	0x3cc4c8c4	0.024021514
231	0x3c61533e	0.013752757
232	0x3c578d3a	0.01315623
233	0x3d3cc225	0.04608359
234	0x3d0b4e1f	0.03401005
235	0x3d43fead	0.0478503
236	0xbb69fcdf	-0.0035703701
237	0xbc0bad25	-0.008525168
238	0x3bbc9c59	0.005755943
239	0xbd1c2756	-0.03812345
240	0x3d117da5	0.035520215
241	0xbbe7ee45	-0.0070779645
242	0x3c577bf6	0.013152113
243	0x3c0be954	0.0085395165
244	0x3d31b0a6	0.043381356
245	0xbc367ada	-0.0111376885
246	0x3cb5afba	0.02217852
247	0x3c415d44	0.011802021
248	0x3aee1072	0.001816286
249	0xbba11740	-0.0049161017
250	0xbd50cdf0	-0.050977647
251	0xbc9eaf14	-0.019370593
252	0x3c905cea	0.01762243
253	0x3d3ad7d1	0.045615975
254	0x3cdc092f	0.026859848
255	0xbc2edb41	-0.010672391

fc1.bias f4 [15]
0	0xbf82b13d	-1.0210339
1	0x3c86b99c	0.016445927
2	0xbf3584ee	-0.7090596
3	0xbd08a326	-0.033358715
4	0xbeda8e0c	-0.42686498
5	0x3cf61073	0.03003714
6	0x3c015eae	0.007896109
7	0xbcdbbd69	-0.026823716
8	0x3c32f17a	0.01092183
9	0xbf2efaa6	-0.6835121
10	0xbb43d32e	-0.0029880512
11	0xbea594bb	-0.32340035
12	0x3b730420	0.0037081316
13	0xb9b691c8	-0.0003482236
14	0xbed9d054	-0.42541754
