save/noiseless_small_2.pth (torch_old, 76371 bytes, 4 tensors)

cv1.weight f4 [2, 1, 8, 8]
0	0x3d6c2c83	0.057659637
1	0x3c51729b	0.012783672
2	0xbd9ba77c	-0.076003045
3	0xbe1f4e8d	-0.15557308
4	0xbe1735c1	-0.14766599
5	0xbdbf3678	-0.09336561
6	0xbdaebd87	-0.08532243
7	0xbe261a03	-0.1622086
8	0x3d35d2bf	0.044390436
9	0x3d8eec71	0.06978691
10	0x3d20bd50	0.039243042
11	0xbbe977ef	-0.007124893
12	0xbe0bc2be	-0.13648507
13	0xbe063026	-0.13104305
14	0xbdeb16d4	-0.114789635
15	0xbd39f715	-0.04540165
16	0x3db8342c	0.08994326
17	0x3d6697e4	0.056297198
18	0xbd78310d	-0.060593653
19	0xbd9ff767	-0.0781086
20	0xbd4ebb67	-0.05047169
21	0x3da9fb74	0.08299914
22	0xbd7accf4	-0.061230615
23	0xbd860021	-0.06542993
24	0x3e291d18	0.16515005
25	0xbd80d117	-0.06289881
26	0x3d745e0d	0.059660006
27	0xbcd77ec0	-0.026305556
28	0x3de0aee0	0.10970855
29	0xbddac0fc	-0.1068134
30	0xbde3241e	-0.11090873
31	0xbdd704dd	-0.104989745
32	0x3e3cfec6	0.18456563
33	0x3d0938a7	0.033501294
34	0xbd178536	-0.036992274
35	0x3d706e5b	0.058698993
36	0x3d231fd6	0.039825283
37	0xbd48bd53	-0.04900868
38	0x3dbe15b7	0.092814855
39	0xbe0c4d6b	-0.13701408
40	0x3e50ee45	0.20403393
41	0x3db8b3fc	0.09018704
42	0x3dffa31f	0.12482285
43	0x3dbb40ce	0.0914322
44	0x3dbe9dba	0.09307428
45	0xbcd92e80	-0.02651143
46	0x3da21868	0.079148114
47	0xbd592b0f	-0.05301958
48	0x3e26134f	0.16218303
49	0x3e436ea4	0.19085175
50	0x3d5397aa	0.05165831
51	0x3e282453	0.16420107
52	0x3e31753e	0.1732988
53	0x3d513a65	0.05108108
54	0x3d5aa62c	0.05338113
55	0x3bb424f8	0.005497571
56	0x3e75444f	0.23951839
57	0x3e805d24	0.2507106
58	0x3e598796	0.21243128
59	0x3df08e86	0.11745934
60	0x3e3f0b22	0.1865659
61	0xbd619e61	-0.055082683
62	0xbd7c23f4	-0.061557725
63	0xbac75a5a	-0.0015209422
64	0x3c2217ed	0.0098934
65	0x3d2f6f53	0.042830776
66	0xbda37923	-0.07982089
67	0xbe031309	-0.1280023
68	0xbdf1c2f4	-0.118047625
69	0xbd032e7d	-0.032026757
70	0xbd3647a2	-0.044501908
71	0xbdea6e3d	-0.114468075
72	0x3dc91971	0.09819306
73	0x3d1c895c	0.038216934
74	0xbd9eaab3	-0.07747402
75	0x3d4a2c73	0.049358796
76	0x3c696042	0.014244141
77	0x3ae28bf2	0.0017284139
78	0xbda0bf71	-0.078490146
79	0xbdd3423a	-0.10315366
80	0xbd20d457	-0.039265003
81	0xbddd6e18	-0.10812014
82	0x3dabe382	0.08393003
83	0xbca122ab	-0.019669851
84	0x3d4b7349	0.04967049
85	0x3dc96b9d	0.09834979
86	0xbdac6b21	-0.08418871
87	0xba77273c	-0.00094281486
88	0x3d18e3e8	0.037326723
89	0xbdb8ac60	-0.09017253
90	0x3d933bc7	0.07189136
91	0x3de72208	0.11285788
92	0x3d52dbb0	0.05147904
93	0x3def910e	0.11697589
94	0xbd548ab5	-0.051890094
95	0xbdb1b479	-0.086770006
96	0x3d51e7c4	0.05124642
97	0xbd225824	-0.03963484
98	0x3bd8f391	0.0066208323
99	0xba98a026	-0.0011644408
100	0x3e0cbc3e	0.13743684
101	0xbc878258	-0.016541645
102	0x3d7f0a9e	0.062265985
103	0x3d3f92b7	0.046770778
104	0xbd589eea	-0.052885927
105	0x3b8c1b1f	0.004275694
106	0x3cec50e0	0.028847158
107	0x3d3466ac	0.044043228
108	0x3cede1b8	0.029038295
109	0x3d4b9ef0	0.04971212
110	0x3d208c6a	0.03919641
111	0x3cefdb3e	0.029279348
112	0xbd5554eb	-0.052082937
113	0x3b137f22	0.0022506197
114	0x3d15f4c3	0.036610376
115	0x3de46789	0.1115256
116	0x3d61b7dd	0.055106986
117	0xbdc69e12	-0.09698118
118	0x3da11e75	0.07867137
119	0xbdebe608	-0.11518484
120	0xbd063ea9	-0.0327746
121	0xbde3b28f	-0.11118042
122	0xbcaf6edc	-0.021415167
123	0x3c7c789c	0.015409615
124	0xbdefb89a	-0.11705132
125	0x3d57b8ec	0.05266659
126	0xbd7aef02	-0.06126309
127	0xbdbed5a0	-0.093180895

cv1.bias f4 [2]
0	0x3e96d123	0.29456434
1	0x3e98b2ba	0.29823858

fc1.weight f4 [15, 1250]
0	0xbd2c2357	-0.04202589
1	0xbc941656	-0.018077057
2	0xbcf6d90b	-0.030132791
3	0xbd30694c	-0.04306917
4	0xbd7381f9	-0.059450123
5	0xbc8c8a7f	-0.017155884
6	0xbcb647f5	-0.022251109
7	0xbbd3569c	-0.0064495336
8	0xbbb79bb5	-0.0056032785
9	0x3bbe15a9	0.005800922
10	0xbc2e9fec	-0.0106582455
11	0xbc29ac49	-0.010356017
12	0xbc8f9bb5	-0.017530302
13	0xbc876e9b	-0.016532233
14	0xba261b46	-0.00063364615
15	0xbc738d01	-0.014865161
16	0x3c99fbca	0.01879682
17	0x3c021438	0.007939391
18	0x3c81ef6b	0.015861234
19	0xbc112334	-0.008858491
20	0xbcb0d441	-0.021585586
21	0xbbd63fa0	-0.0065383464
22	0xbc5b004c	-0.01336677
23	0x3bf62b7d	0.0075125084
24	0xbc9a4823	-0.018833226
25	0xbcc44088	-0.023956552
26	0xbd26c1e3	-0.04071225
27	0xbd2c8309	-0.042117152
28	0xbd0868a8	-0.033302933
29	0xbccf0edb	-0.025275638
30	0xbb64aed1	-0.0034894238
31	0x3b6e4860	0.0036359057
32	0xbd08cd10	-0.033398688
33	0xbca93368	-0.020654395
34	0x3c7f7e96	0.015594145
35	0x3c8be9b7	0.017079217
36	0xbc9287fe	-0.017887112
37	0x3c4ca593	0.012490648
38	0xbbece933	-0.007229948
39	0x3c667080	0.014064908
40	0x3d0cfa36	0.034418307
41	0x3c70288f	0.014658107
42	0x3d02ff8e	0.031981997
43	0xbc4932ab	-0.012280147
44	0x3b3cecb7	0.0028827616
45	0xbcae14b4	-0.021250106
46	0xbc0d2351	-0.008614377
47	0xbc8e1d11	-0.017347844
48	0xbcece893	-0.028919494
49	0x3c8af954	0.016964592
50	0xbcdd1d52	-0.02699152
51	0xbb1503fc	-0.002273797
52	0xbd27f398	-0.041003793
53	0xbbcbe78a	-0.00622267
54	0xbc0fc7cf	-0.008775665
55	0xbbba4e92	-0.005685636
56	0x3bb24270	0.005440049
57	0xbcb90cbc	-0.02258908
58	0xbb034965	-0.002003276
59	0xbbab2945	-0.0052234256
60	0x3cd773b7	0.026300294
61	0xba9e412e	-0.0012073868
62	0xbc80fcb8	-0.015745506
63	0xbc37191a	-0.011175418
64	0x3d20ff45	0.039305944
65	0x3ccb804b	0.024841448
66	0x3bec3a14	0.007209072
67	0x3cc487ea	0.02399059
68	0xbc6c0b51	-0.014406995
69	0x3ce133ca	0.027490515
70	0x3ba5c764	0.0050591696
71	0x3b2e2682	0.0026573245
72	0xbc264297	-0.010147712
73	0xbc0ed22b	-0.0087171
74	0xbbef787e	-0.007308065
75	0x3ba19ca9	0.0049320054
76	0xbc964180	-0.01834178
77	0xbc5f571a	-0.0136316065
78	0xbc861e2a	-0.016371805
79	0x3c84890b	0.016178628
80	0xbcc60cf9	-0.024176108
81	0xbcb443fd	-0.022005076
82	0xbca56f0d	-0.020194555
83	0xbc254135	-0.010086347
84	0xbc60cbac	-0.013720434
85	0xbc562f61	-0.013072819
86	0x3c6cd641	0.014455379
87	0x3d0afafe	0.03393077
88	0x3c27e9f8	0.010248654
89	0x3d24710f	0.040146884
90	0x3d2fcb70	0.042918622
91	0x3cf6c805	0.030124674
92	0x3cd2c79c	0.025729947
93	0x3ccc6bb7	0.024953706
94	0x3c91881d	0.0177651
95	0x3ae480ab	0.0017433366
96	0x3c94a4ee	0.01814505
97	0x3abd6827	0.0014450595
98	0x3c505c00	0.012717247
99	0xbc83ce9f	-0.016089736
100	0x3c994d8b	0.018713733
101	0x38933cf0	7.020857e-05
102	0x3c92e771	0.017932625
103	0x3947a0aa	0.00019037971
104	0x3c2b91db	0.010471786
105	0x3cc940d1	0.02456704
106	0x3c33f523	0.010983738
107	0xbc80c882	-0.01572061
108	0xb99955ba	-0.00029246305
109	0x3cbef337	0.023309333
110	0x3ce72ffb	0.028221121
111	0x3cdea2fa	0.027177323
112	0x3d188ec0	0.037245512
113	0xbb599f3f	-0.003320649
114	0x3c730c0d	0.014834416
115	0x3c571774	0.01312815
116	0x3d1a2d9a	0.037641145
117	0x3afc9bcd	0.0019272506
118	0xbaca0c28	-0.0015415
119	0x3c85a0b6	0.016311985
120	0x3ca5b933	0.020229911
121	0x3c8379eb	0.016049346
122	0x3c896641	0.016772391
123	0x3b52fe71	0.0032195116
124	0x3c1d5748	0.009603329
125	0xbcaddb1d	-0.021222645
126	0x3cb56e94	0.022147454
127	0xbc2ac205	-0.010422234
128	0x3c459be8	0.012061097
129	0x3bcc76ec	0.0062397625
130	0x3c239bfd	0.009985921
131	0xbb3e4cfd	-0.0029037588
132	0x3d05f8fd	0.032708157
133	0x3caaac4b	0.020834109
134	0x3d0e5c5f	0.03475606
135	0x3be925e8	0.0071151145
136	0x3cddffa8	0.027099445
137	0x3cd71e10	0.026259452
138	0x3c20cb3a	0.009814078
139	0x3c504754	0.012712318
140	0x3c80962b	0.015696606
141	0x3d2699de	0.040674083
142	0xbb81435d	-0.003944798
143	0x3ca735a0	0.020411313
144	0x3bf18757	0.00737087
145	0xbc5933f0	-0.013257012
146	0x3b79375e	0.0038027386
147	0x3c17bad0	0.009260848
148	0xbb7aa940	-0.0038247854
149	0x3b80f657	0.003935616
150	0x3be41cfd	0.0069614635
151	0xbcdb63f3	-0.026781058
152	0xbc2b745f	-0.010464757
153	0xbc838073	-0.01605246
154	0xbc59a30b	-0.013283501
155	0xbc344f35	-0.011005213
156	0x3ccb52eb	0.024819812
157	0x3cb75f16	0.022384208
158	0x3bf3c113	0.0074387877
159	0xbb04edd0	-0.002028335
160	0x3c637d57	0.013884864
161	0x3a53305d	0.0008056218
162	0xbbfdaeca	-0.0077417837
163	0x3c450e14	0.012027282
164	0x3c8ca5b3	0.017168855
165	0x3ca721df	0.020401893
166	0x3d3ee68f	0.046606597
167	0x3c263905	0.01014543
168	0xbaf41edf	-0.0018624923
169	0xba06bde0	-0.0005139988
170	0x3cab5c6b	0.020918092
171	0x3c90c7e9	0.01767345
172	0x3c931e81	0.017958881
173	0x3ce3ad3c	0.027792566
174	0x3cf3d1ef	0.02976319
175	0xbbfa316a	-0.007635285
176	0x3c943dcc	0.018095873
177	0x3cd2e4c5	0.025743851
178	0x3c5e5cf1	0.013571964
179	0xbc9192fa	-0.01777028
180	0x3c8085d7	0.01568882
181	0x3c0beef2	0.008540856
182	0x3c8e9d67	0.01740904
183	0xbc0fa581	-0.008767487
184	0x3cfe1cc4	0.031019576
185	0x3c9b6dcd	0.018973256
186	0x3cc95ac6	0.024579417
187	0x3d1c8aef	0.038218435
188	0x3c4647c4	0.012102071
189	0x3d203f89	0.03912309
190	0x3ad1c229	0.0016003299
191	0x3d0b627f	0.03402948
192	0x3d00a82a	0.031410374
193	0x3c3a5088	0.011371739
194	0xbac81408	-0.0015264759
195	0xbafecc0b	-0.0019439472
196	0xbb0d377d	-0.0021547966
197	0x3c184b8d	0.009295356
198	0x3b8ff5f9	0.004393336
199	0x3cba3963	0.022732442
200	0xbc03afff	-0.008037566
201	0xbcf5a4be	-0.029985782
202	0xbce5390b	-0.027981302
203	0x3cf22307	0.029557718
204	0x3ba9fbca	0.0051874863
205	0xbbb7d3e1	-0.0056099747
206	0x3c2fec41	0.01073748
207	0x3d047807	0.03234103
208	0x3ccd854b	0.025087973
209	0x3ced0808	0.028934494
210	0x3c5c97fa	0.013463968
211	0xbc17feaf	-0.00927703
212	0x3c185bdd	0.009299246
213	0x3d2b4954	0.041817978
214	0xbb7de73c	-0.0038742563
215	0x3b9f12bf	0.0048545296
216	0x3bbf5423	0.0058388873
217	0x3ce1993e	0.027538892
218	0x3d209403	0.039203655
219	0x3c5fabba	0.013651783
220	0x3d33f719	0.043936823
221	0xbbd10bf7	-0.0063796
222	0x3d0af8c1	0.033928636
223	0x3b61d914	0.0034461664
224	0x3ca32aba	0.019917835
225	0xbcd95031	-0.026527496
226	0x3c681907	0.014166123
227	0xbbae642e	-0.005322001
228	0x3cdd5fb7	0.02702318
229	0x3ca22ee0	0.019797742
230	0x3cb48d73	0.022040104
231	0x3cccd8e0	0.025005758
232	0x3c9d4b4f	0.019200949
233	0xbbfa8648	-0.007645402
234	0x3cc9f279	0.024651753
235	0xbc4d53da	-0.012532199
236	0x3d0d8bbe	0.034557097
237	0x3c93cf24	0.018043108
238	0x3c334b2a	0.0109432135
239	0x3ce96ed3	0.028495228
240	0xbab1fb03	-0.0013578836
241	0x3cd03274	0.025414683
242	0x3cf35ade	0.029706415
243	0x3ccf2cec	0.025289975
244	0x3d0c606c	0.034271643
245	0xbb9d317a	-0.004797158
246	0x3ccbdcf2	0.024885628
247	0x3d1fd867	0.039024737
248	0x3d1627d0	0.036659062
249	0x3b1bc8c1	0.0023770782
250	0xbd1d2407	-0.038364436
251	0x3a0db5f9	0.0005405839
252	0x3c7706a8	0.015077271
253	0x3cd071e1	0.025444927
254	0x3cdfff84	0.027343519
255	0x3c978712	0.018497024

fc1.bias f4 [15]
0	0x3c59189e	0.013250498
1	0x3d614584	0.054997936
2	0xbcae7e2d	-0.0213004
3	0x3d722bcf	0.05912381
4	0xbba71792	-0.0050992453
5	0xbb97fddf	-0.004638418
6	0xbd819ca4	-0.06328705
7	0xbc530b4d	-0.012881112
8	0xbd64e7d8	-0.055885166
9	0x3cd3de7f	0.02586293
10	0x3c53fc8e	0.012938632
11	0xbc065ef2	-0.008201348
12	0xbd004f06	-0.031325363
13	0xbd21562b	-0.039388817
14	0xbbcd4972	-0.006264859
